…
ha': 1.2, 'l1_loss_alpha': 1.2, 'ae_loss_alpha': 1.2, 'global_wgan_loss_alpha': 1.0, 'gan_loss_alpha': 0.001, 'wgan_gp_lambda': 10, 'netG': {'input_dim': 3, 'ngf': 32}, 'netD': {'input_dim': 3, 'ndf': 64}}
2023-11-20 22:13:09,878 INFO Training on dataset: animals
###################################################
###################################################
2023-11-20 22:13:14,187 INFO 
Generator_primitive(
  (coarse_generator): CoarseGenerator(
    (conv1): Conv2dBlock(
      (pad): ZeroPad2d(padding=(0, 0, 0, 0), value=0.0)
      (activation): ELU(alpha=1.0, inplace=True)
      (conv): Conv2d(5, 32, kernel_size=(5, 5), stride=(1, 1), padding=(2, 2))
    )
    (conv2_downsample): Conv2dBlock(
      (pad): ZeroPad2d(padding=(0, 0, 0, 0), value=0.0)
      (activation): ELU(alpha=1.0, inplace=True)
      (conv): Conv2d(32, 64, kernel_size=(3, 3), stride=(2, 2), padding=(1, 1))
    )
    (conv3): Conv2dBlock(
      (pad): ZeroPad2d(padding=(0, 0, 0, 0), value=0.0)
      (activation): ELU(alpha=1.0, inplace=True)
      (conv): Conv2d(64, 64, kernel_size=(3, 3), stride=(1, 1), padding=(1, 1))
    )
    (conv4_downsample): Conv2dBlock(
      (pad): ZeroPad2d(padding=(0, 0, 0, 0), value=0.0)
      (activation): ELU(alpha=1.0, inplace=True)
      (conv): Conv2d(64, 128, kernel_size=(3, 3), stride=(2, 2), padding=(1, 1))
    )
    (conv5): Conv2dBlock(
      (pad): ZeroPad2d(padding=(0, 0, 0, 0), value=0.0)
      (activation): ELU(alpha=1.0, inplace=True)
      (conv): Conv2d(128, 128, kernel_size=(3, 3), stride=(1, 1), padding=(1, 1))
    )
    (conv6): Conv2dBlock(
      (pad): ZeroPad2d(padding=(0, 0, 0, 0), value=0.0)
      (activation): ELU(alpha=1.0, inplace=True)
      (conv): Conv2d(128, 128, kernel_size=(3, 3), stride=(1, 1), padding=(1, 1))
    )
    (conv7_atrous): Conv2dBlock(
      (pad): ZeroPad2d(padding=(0, 0, 0, 0), value=0.0)
      (activation): ELU(alpha=1.0, inplace=True)
      (conv): Conv2d(128, 128, kernel_size=(3, 3), stride=(1, 1), padding=(2, 2), dilation=(2, 2))
    )
    (conv8_atrous): Conv2dBlock(
      (pad): ZeroPad2d(padding=(0, 0, 0, 0), value=0.0)
      (activation): ELU(alpha=1.0, inplace=True)
      (conv): Conv2d(128, 128, kernel_size=(3, 3), stride=(1, 1), padding=(4, 4), dilation=(4, 4))
    )
    (conv9_atrous): Conv2dBlock(
      (pad): ZeroPad2d(padding=(0, 0, 0, 0), value=0.0)
      (activation): ELU(alpha=1.0, inplace=True)
      (conv): Conv2d(128, 128, kernel_size=(3, 3), stride=(1, 1), padding=(8, 8), dilation=(8, 8))
    )
    (conv10_atrous): Conv2dBlock(
      (pad): ZeroPad2d(padding=(0, 0, 0, 0), value=0.0)
      (activation): ELU(alpha=1.0, inplace=True)
      (conv): Conv2d(128, 128, kernel_size=(3, 3), stride=(1, 1), padding=(16, 16), dilation=(16, 16))
    )
    (conv11): Conv2dBlock(
      (pad): ZeroPad2d(padding=(0, 0, 0, 0), value=0.0)
      (activation): ELU(alpha=1.0, inplace=True)
      (conv): Conv2d(128, 128, kernel_size=(3, 3), stride=(1, 1), padding=(1, 1))
    )
    (conv12): Conv2dBlock(
      (pad): ZeroPad2d(padding=(0, 0, 0, 0), value=0.0)
      (activation): ELU(alpha=1.0, inplace=True)
      (conv): Conv2d(128, 128, kernel_size=(3, 3), stride=(1, 1), padding=(1, 1))
    )
    (conv13): Conv2dBlock(
      (pad): ZeroPad2d(padding=(0, 0, 0, 0), value=0.0)
      (activation): ELU(alpha=1.0, inplace=True)
      (conv): Conv2d(128, 64, kernel_size=(3, 3), stride=(1, 1), padding=(1, 1))
    )
    (conv14): Conv2dBlock(
      (pad): ZeroPad2d(padding=(0, 0, 0, 0), value=0.0)
      (activation): ELU(alpha=1.0, inplace=True)
      (conv): Conv2d(64, 64, kernel_size=(3, 3), stride=(1, 1), padding=(1, 1))
    )
    (conv15): Conv2dBlock(
      (pad): ZeroPad2d(padding=(0, 0, 0, 0), value=0.0)
      (activation): ELU(alpha=1.0, inplace=True)
      (conv): Conv2d(64, 32, kernel_size=(3, 3), stride=(1, 1), padding=(1, 1))
    )
    (conv16): Conv2dBlock(
      (pad): ZeroPad2d(padding=(0, 0, 0, 0), value=0.0)
      (activation): ELU(alpha=1.0, inplace=True)
      (conv): Conv2d(32, 16, kernel_size=(3, 3), stride=(1, 1), padding=(1, 1))
    )
    (conv17): Conv2dBlock(
      (pad): ZeroPad2d(padding=(0, 0, 0, 0), value=0.0)
      (conv): Conv2d(16, 3, kernel_size=(3, 3), stride=(1, 1), padding=(1, 1))
    )
  )
  (fine_generator): CoarseGenerator(
    (conv1): Conv2dBlock(
      (pad): ZeroPad2d(padding=(0, 0, 0, 0), value=0.0)
      (activation): ELU(alpha=1.0, inplace=True)
      (conv): Conv2d(5, 32, kernel_size=(5, 5), stride=(1, 1), padding=(2, 2))
    )
    (conv2_downsample): Conv2dBlock(
      (pad): ZeroPad2d(padding=(0, 0, 0, 0), value=0.0)
      (activation): ELU(alpha=1.0, inplace=True)
      (conv): Conv2d(32, 64, kernel_size=(3, 3), stride=(2, 2), padding=(1, 1))
    )
    (conv3): Conv2dBlock(
      (pad): ZeroPad2d(padding=(0, 0, 0, 0), value=0.0)
      (activation): ELU(alpha=1.0, inplace=True)
      (conv): Conv2d(64, 64, kernel_size=(3, 3), stride=(1, 1), padding=(1, 1))
    )
    (conv4_downsample): Conv2dBlock(
      (pad): ZeroPad2d(padding=(0, 0, 0, 0), value=0.0)
      (activation): ELU(alpha=1.0, inplace=True)
      (conv): Conv2d(64, 128, kernel_size=(3, 3), stride=(2, 2), padding=(1, 1))
    )
    (conv5): Conv2dBlock(
      (pad): ZeroPad2d(padding=(0, 0, 0, 0), value=0.0)
      (activation): ELU(alpha=1.0, inplace=True)
      (conv): Conv2d(128, 128, kernel_size=(3, 3), stride=(1, 1), padding=(1, 1))
    )
    (conv6): Conv2dBlock(
      (pad): ZeroPad2d(padding=(0, 0, 0, 0), value=0.0)
      (activation): ELU(alpha=1.0, inplace=True)
      (conv): Conv2d(128, 128, kernel_size=(3, 3), stride=(1, 1), padding=(1, 1))
    )
    (conv7_atrous): Conv2dBlock(
      (pad): ZeroPad2d(padding=(0, 0, 0, 0), value=0.0)
      (activation): ELU(alpha=1.0, inplace=True)
      (conv): Conv2d(128, 128, kernel_size=(3, 3), stride=(1, 1), padding=(2, 2), dilation=(2, 2))
    )
    (conv8_atrous): Conv2dBlock(
      (pad): ZeroPad2d(padding=(0, 0, 0, 0), value=0.0)
      (activation): ELU(alpha=1.0, inplace=True)
      (conv): Conv2d(128, 128, kernel_size=(3, 3), stride=(1, 1), padding=(4, 4), dilation=(4, 4))
    )
    (conv9_atrous): Conv2dBlock(
      (pad): ZeroPad2d(padding=(0, 0, 0, 0), value=0.0)
      (activation): ELU(alpha=1.0, inplace=True)
      (conv): Conv2d(128, 128, kernel_size=(3, 3), stride=(1, 1), padding=(8, 8), dilation=(8, 8))
    )
    (conv10_atrous): Conv2dBlock(
      (pad): ZeroPad2d(padding=(0, 0, 0, 0), value=0.0)
      (activation): ELU(alpha=1.0, inplace=True)
      (conv): Conv2d(128, 128, kernel_size=(3, 3), stride=(1, 1), padding=(16, 16), dilation=(16, 16))
    )
    (conv11): Conv2dBlock(
      (pad): ZeroPad2d(padding=(0, 0, 0, 0), value=0.0)
      (activation): ELU(alpha=1.0, inplace=True)
      (conv): Conv2d(128, 128, kernel_size=(3, 3), stride=(1, 1), padding=(1, 1))
    )
    (conv12): Conv2dBlock(
      (pad): ZeroPad2d(padding=(0, 0, 0, 0), value=0.0)
      (activation): ELU(alpha=1.0, inplace=True)
      (conv): Conv2d(128, 128, kernel_size=(3, 3), stride=(1, 1), padding=(1, 1))
    )
    (conv13): Conv2dBlock(
      (pad): ZeroPad2d(padding=(0, 0, 0, 0), value=0.0)
      (activation): ELU(alpha=1.0, inplace=True)
      (conv): Conv2d(128, 64, kernel_size=(3, 3), stride=(1, 1), padding=(1, 1))
    )
    (conv14): Conv2dBlock(
      (pad): ZeroPad2d(padding=(0, 0, 0, 0), value=0.0)
      (activation): ELU(alpha=1.0, inplace=True)
      (conv): Conv2d(64, 64, kernel_size=(3, 3), stride=(1, 1), padding=(1, 1))
    )
    (conv15): Conv2dBlock(
      (pad): ZeroPad2d(padding=(0, 0, 0, 0), value=0.0)
      (activation): ELU(alpha=1.0, inplace=True)
      (conv): Conv2d(64, 32, kernel_size=(3, 3), stride=(1, 1), padding=(1, 1))
    )
    (conv16): Conv2dBlock(
      (pad): ZeroPad2d(padding=(0, 0, 0, 0), value=0.0)
      (activation): ELU(alpha=1.0, inplace=True)
      (conv): Conv2d(32, 16, kernel_size=(3, 3), stride=(1, 1), padding=(1, 1))
    )
    (conv17): Conv2dBlock(
      (pad): ZeroPad2d(padding=(0, 0, 0, 0), value=0.0)
      (conv): Conv2d(16, 3, kernel_size=(3, 3), stride=(1, 1), padding=(1, 1))
    )
  )
)
2023-11-20 22:13:14,187 INFO 
LocalDis(
  (dis_conv_module): DisConvModule(
    (conv1): Conv2dBlock(
      (pad): ZeroPad2d(padding=(0, 0, 0, 0), value=0.0)
      (activation): LeakyReLU(negative_slope=0.2, inplace=True)
      (conv): Conv2d(3, 64, kernel_size=(5, 5), stride=(2, 2), padding=(2, 2))
    )
    (conv2): Conv2dBlock(
      (pad): ZeroPad2d(padding=(0, 0, 0, 0), value=0.0)
      (activation): LeakyReLU(negative_slope=0.2, inplace=True)
      (conv): Conv2d(64, 128, kernel_size=(5, 5), stride=(2, 2), padding=(2, 2))
    )
    (conv3): Conv2dBlock(
      (pad): ZeroPad2d(padding=(0, 0, 0, 0), value=0.0)
      (activation): LeakyReLU(negative_slope=0.2, inplace=True)
      (conv): Conv2d(128, 256, kernel_size=(5, 5), stride=(2, 2), padding=(2, 2))
    )
    (conv4): Conv2dBlock(
      (pad): ZeroPad2d(padding=(0, 0, 0, 0), value=0.0)
      (activation): LeakyReLU(negative_slope=0.2, inplace=True)
      (conv): Conv2d(256, 256, kernel_size=(5, 5), stride=(2, 2), padding=(2, 2))
    )
  )
  (linear): Linear(in_features=16384, out_features=1, bias=True)
)
2023-11-20 22:13:14,187 INFO 
GlobalDis(
  (dis_conv_module): DisConvModule(
    (conv1): Conv2dBlock(
      (pad): ZeroPad2d(padding=(0, 0, 0, 0), value=0.0)
      (activation): LeakyReLU(negative_slope=0.2, inplace=True)
      (conv): Conv2d(3, 64, kernel_size=(5, 5), stride=(2, 2), padding=(2, 2))
    )
    (conv2): Conv2dBlock(
      (pad): ZeroPad2d(padding=(0, 0, 0, 0), value=0.0)
      (activation): LeakyReLU(negative_slope=0.2, inplace=True)
      (conv): Conv2d(64, 128, kernel_size=(5, 5), stride=(2, 2), padding=(2, 2))
    )
    (conv3): Conv2dBlock(
      (pad): ZeroPad2d(padding=(0, 0, 0, 0), value=0.0)
      (activation): LeakyReLU(negative_slope=0.2, inplace=True)
      (conv): Conv2d(128, 256, kernel_size=(5, 5), stride=(2, 2), padding=(2, 2))
    )
    (conv4): Conv2dBlock(
      (pad): ZeroPad2d(padding=(0, 0, 0, 0), value=0.0)
      (activation): LeakyReLU(negative_slope=0.2, inplace=True)
      (conv): Conv2d(256, 256, kernel_size=(5, 5), stride=(2, 2), padding=(2, 2))
    )
  )
  (linear): Linear(in_features=65536, out_features=1, bias=True)
)
Resume from checkpoints/animals/hole_benchmark at iteration 490
2023-11-20 22:13:14,309 INFO Resume from checkpoints/animals/hole_benchmark at iteration 490
###################################################
2023-11-20 22:15:55,476 INFO Iter: [490/500] l1: 0.045618 ae: 0.059358 wgan_g: -170223120.000000 wgan_d: -39.553848 wgan_gp: 7708.901855 g: -170223.000000 d: 77049.460938 speed: 0.01 batches/s 
…
